net_params_srcnn.pkl (torch, 61317 bytes, 6 tensors)

patch_extraction.weight f4 [64, 3, 5, 5]
000000 3a 74 a5 3d c8 d5 7a bd e9 0c 72 bc 36 da 33 3e
       0.08078809 -0.061239034 -0.014773586 0.1756371
000010 fd f9 c7 3d 2e d6 1b 3e 24 84 f3 3c ed d4 04 3e
       0.09764478 0.15218422 0.029726095 0.1297185
000020 b5 cc 0e 3e 16 6f ef 3d ab d0 d4 bc 6e c1 ed 3d
       0.13945277 0.1169111 -0.025978407 0.116091594
000030 2b 9a 0a be d7 c6 c4 bc 39 24 ca 3c 50 cb 10 bd
       -0.13535373 -0.024020595 0.024675475 -0.035350144
000040 53 48 48 3e a1 4d 32 be 84 cc 08 be f3 9f 08 bd
       0.1955884 -0.17412426 -0.13359267 -0.033355664
000050 91 27 a8 bd fd a9 88 3d 38 e3 a5 bd cf 82 9c 3d
       -0.08210672 0.06673048 -0.08099979 0.07642137
000060 c8 49 e2 b9 01 69 94 bc e7 8e 17 3d 61 e8 d9 bd
       -0.0004316105 -0.018116476 0.037001517 -0.10640026
000070 22 a9 40 3e 66 c5 68 3d b3 aa 44 3d e2 9b ff bb
       0.18814519 0.05682888 0.048014354 -0.007800565
000080 76 21 2f bd 27 25 c9 3b ce eb c9 bc be 2d cd 3d
       -0.04275652 0.006138462 -0.024648573 0.1001849
000090 50 85 6b bd 56 59 43 bd 00 c3 2a be 79 af 54 bd
       -0.057500184 -0.04769262 -0.16675949 -0.051925156
0000a0 43 80 03 bb ac 6e 89 3c c5 32 bd bd ef 42 28 be
       -0.0020065464 0.016776405 -0.09238199 -0.16431783
0000b0 51 eb 6c 3d 75 f7 97 3d 26 d2 0b 3e 25 40 16 be
       0.057841603 0.074202456 0.13654384 -0.14672907
0000c0 b5 2e 27 3d 7a 53 04 bc de 2d de bc 56 7f 83 3d
       0.040816028 -0.008076543 -0.02712148 0.06420772
0000d0 f1 c5 90 bc 35 45 b2 3d c3 f4 04 3e 80 d0 c4 3d
       -0.01767251 0.087046064 0.12983994 0.09610081
0000e0 bd 5a 04 3e e6 5b f5 bc 07 8a 40 3d c1 9b 11 bd
       0.12925239 -0.029951047 0.047006633 -0.03554893
0000f0 08 03 d9 bc 90 f7 3e 3c 18 3f 84 be 9b 46 45 be
       -0.026490703 0.011655703 -0.25829387 -0.19265215
000100 fa 26 26 be 10 9c 9e 3d 0d 78 90 3d e9 8e f7 bd
       -0.16225806 0.0774461 0.07054148 -0.12087805
000110 eb 9e 84 3d 43 23 58 b9 4b cd ef bb 0b 3c 25 3d
       0.06475624 -0.00020612501 -0.007318174 0.040340465
000120 ab 03 57 bd cc e9 b0 3d 6e c2 f1 3d 43 2d 0f 3e
       -0.052493732 0.08638343 0.11804663 0.1398211
000130 46 eb 33 bc 79 b7 c0 3d 15 bb 61 3c b0 72 d2 3d
       -0.0109813865 0.09409995 0.013777514 0.10275781
000140 04 2d cc 3b 29 9d 9f bd b1 45 86 3d 41 cc cc b7
       0.006230952 -0.07793648 0.06556261 -2.4413808e-05
000150 18 e8 e3 bd 5c 1b 10 bc 5c 31 3c bd 06 e6 4f 3e
       -0.11128253 -0.0087955855 -0.04594551 0.2030259
000160 58 67 6d 3e 71 be 11 3e 8b 4e fa bc c5 1b 19 be
       0.23183954 0.14232804 -0.03055503 -0.14952
000170 59 67 27 3e 42 3b 4c bd 8b 75 a1 3d 27 b4 57 bd
       0.16348018 -0.0498612 0.07883748 -0.05266204
000180 04 40 f1 3d c4 9c a2 3d 2c 5d f2 bd de a6 ee bd
       0.11779788 0.07940057 -0.118341774 -0.11652921
000190 02 1e 13 3d b8 70 15 3e 47 33 84 b9 c3 2c 86 bd
       0.03591729 0.1459378 -0.00025215207 -0.06551506
0001a0 03 1c 9e 3d 30 1f da 3c 95 78 c3 3d d3 60 8c bd
       0.077201866 0.0266262 0.095444836 -0.06854405
0001b0 95 23 06 be db 0f af 3d 0c 2a a6 3c 2f 39 ee bc
       -0.13099511 0.08547946 0.020283721 -0.029080002
0001c0 c8 db d1 3d ff 09 6b 3e e9 5e 2f 3e c9 f8 3d bd
       0.10246998 0.22953032 0.17126049 -0.04637984
0001d0 a0 72 55 3c a5 81 d5 3d 6b d2 21 3e 0d 5e 2b bb
       0.013027817 0.10425118 0.15802924 -0.0026148588
0001e0 49 94 ee 3d 89 99 a1 3d 87 ab 23 3e 07 f5 ec bd
       0.11649377 0.07890613 0.15983401 -0.11570173
0001f0 26 72 65 bc e7 4f 82 bd 70 80 80 bd 6b ca 91 3d
       -0.014004266 -0.063628964 -0.062744975 0.07118686
000200 36 2f 66 bd 68 b3 c2 3c 3b d3 8b bd 2c 22 85 3d
       -0.056197368 0.023767188 -0.068273984 0.065006584
000210 ca c1 1f bd 01 4d 03 3d 1f 8e 1a bd 63 47 82 bd
       -0.03900317 0.03205586 -0.037733193 -0.06361272
000220 46 c9 dc 3c b7 8d 0c 3e bd 2f f2 3d 7a 85 e1 3d
       0.026951443 0.13725935 0.118255116 0.11011787
000230 da 1d 45 bb 13 9f 32 bd 71 ee 91 3d 94 a3 05 3e
       -0.0030077607 -0.043608736 0.07125557 0.13050681
000240 63 4d 06 3d cf ea 85 bd e9 f0 b4 bc cf 49 88 3d
       0.032788645 -0.06538927 -0.022087531 0.06654703
000250 68 f0 c1 bc cb 82 1c bc 6b d8 13 3d 20 ea af 3d
       -0.023674205 -0.009552668 0.036095064 0.08589578
000260 42 25 d1 3c b0 ca 81 bc 20 d0 16 bd fc 92 9d bd
       0.025530461 -0.01584372 -0.036819577 -0.07694051
000270 9a 14 ef 3b 74 7c 8d bd b0 06 9b 3d 0f 50 78 bd
       0.007296157 -0.06908503 0.07569635 -0.060623225
000280 e9 42 bf 3d 00 f6 15 3e 8c 8b 9d 38 04 52 32 3e
       0.09338934 0.14644623 7.512336e-05 0.17414099
000290 b6 2b 2e 3e 15 c5 a1 bd 0d b3 f7 3d 0a 1c 9a 3d
       0.17008862 -0.078989185 0.12094698 0.07524879
0002a0 41 11 0d 3e e6 4a 4b bd 6b 9e b7 bd 79 02 89 bd
       0.13776113 -0.049631976 -0.08965763 -0.06689925
0002b0 98 1a fb 3d 3d 06 91 bd 16 8b 8f 3c 0a 34 e7 bd
       0.12260932 -0.07081268 0.017522376 -0.112892225
0002c0 3b 36 97 bd 43 cb d8 3d 4d 68 16 bc 99 be 0d bb
       -0.073833905 0.10585644 -0.009180141 -0.0021628498
0002d0 8f 1a b2 bc 4e d9 69 3d 44 4a 1c 3d d6 e3 53 3d
       -0.02174118 0.057092004 0.038156763 0.051730953
0002e0 04 96 fd bc d9 fe f5 3d f2 92 65 bd 2c bd 48 3e
       -0.030955322 0.12011499 -0.05604834 0.19603413
0002f0 b0 b7 21 bc 1f 07 2f bd 83 f6 40 3d da bd 63 3c
       -0.009870455 -0.0427314 0.047110092 0.013900245
000300 b7 3b 71 3d 63 42 5c 3b 66 54 2c bd 2b 83 16 bd
       0.05889484 0.0033608906 -0.042072676 -0.036746185
000310 f2 52 f9 3c 4b 41 b7 3d fe 49 e7 bc af 32 7f bd
       0.03043506 0.089480005 -0.028233524 -0.062304195
000320 4c d9 30 bd d4 ca 57 bc ee ee 4f 3d ac ee 0b be
       -0.04317598 -0.013170917 0.05076497 -0.13665265
000330 72 6e 59 bd 77 d8 95 bd 80 91 12 3d d6 11 94 3d
       -0.053083844 -0.07316678 0.03578329 0.072299644
000340 9c be f5 3c bf 28 fb 3d 0b 7b 9f 3c 9e f2 11 3d
       0.029998116 0.12263631 0.019467851 0.03563177
000350 f2 88 e0 3d ea 01 48 bd 97 70 a5 bc 9b 45 c2 3d
       0.1096362 -0.04882995 -0.020195289 0.094859324
000360 6e 88 94 bd af 38 2c bc 81 68 a3 3b 68 6d 6a 3c
       -0.072525844 -0.010511561 0.004986823 0.014308311
000370 27 1e e9 bd 89 bd 8a bd 89 01 76 3d 77 a5 4a 3d
       -0.11382704 -0.06774432 0.060060058 0.049474206
000380 fb 7a 54 bd 23 2e c8 bd 8c 41 56 bd 69 2f 02 3e
       -0.051875096 -0.09774425 -0.052308604 0.12713398
000390 80 c1 5d 3d 9d d3 4d 3d ea 52 bb bd c6 37 b9 3b
       0.054139614 0.05025064 -0.09146674 0.0056524007
0003a0 5b 86 34 bc 0b ba 0b be 0f ac c4 3d 53 af 8e 3d
       -0.011018361 -0.13645189 0.0960313 0.06967034
0003b0 df 74 93 3c 6d 3d 0e 3e 63 2e ed 3d b5 b1 d8 3d
       0.018000064 0.1389062 0.11581113 0.1058077
0003c0 65 f1 ba bd 20 f1 16 bd 23 e5 23 3e e1 67 ee 3d
       -0.091280736 -0.03685105 0.16005377 0.11640907
0003d0 60 5c d7 3d 8f b2 e6 3d e2 d7 b3 3c b2 54 f4 3d
       0.10515666 0.11264526 0.021953527 0.11930217
0003e0 4c 19 a9 3d e2 16 cf 3d 8e 9a ef 3c cd 0e b9 3d
       0.08256778 0.101117864 0.029248502 0.09036026
0003f0 e0 de 8c 3d 31 64 dc 3b 84 c0 dc 3d b1 cf d0 ba
       0.068784475 0.006725811 0.10778907 -0.0015931037

patch_extraction.bias f4 [64]
000000 fa b1 10 3e b8 9f 85 bd e7 c4 38 bf a9 95 52 bd
       0.14130393 -0.065246046 -0.7217545 -0.05141226
000010 94 46 17 3e 3e 2c 4b b9 02 15 4e 3d 8a a8 bc 3d
       0.14773017 -0.0001937607 0.050313003 0.09211834
000020 e9 29 28 3e bc 34 b1 3c 0e 9d e8 3d 21 79 3b 3e
       0.16422237 0.021631591 0.11358081 0.18307926
000030 6c db 2c 3e ce dc 79 3c 16 fc aa bd 8f 50 44 bd
       0.16880578 0.015250398 -0.08348863 -0.04792839
000040 db e7 06 3d cc 83 7b 3e 05 71 88 bb 13 9a 84 bd
       0.03293596 0.24561995 -0.0041638636 -0.064747
000050 57 83 06 3d 5e 52 c1 3c a3 16 2b 3c 3d fd f6 bb
       0.0328401 0.023598846 0.010442409 -0.0075375126
000060 6a 56 dc bd 1b e5 c3 3c 5a 67 9c 3c 31 55 02 3e
       -0.1075867 0.023912957 0.01909225 0.1272781
000070 7e 0c 4f 3e 67 9b 01 3d 09 82 5e 3e c5 64 39 3c
       0.20219609 0.031642344 0.21729292 0.011315529
000080 aa 32 57 3e 79 86 20 3e d4 5f e0 3d 7f db 14 3e
       0.2101542 0.15676297 0.10955778 0.14536856
000090 99 62 73 bd cb f8 09 3d fc bc 2f 3d f4 19 37 bd
       -0.059420202 0.033684533 0.04290484 -0.044702485
0000a0 45 1f 1f 3e bc 13 bd 3d de d6 8c 3d 62 46 f9 bd
       0.15539272 0.0923228 0.0687692 -0.121716276
0000b0 8d a2 73 3a 41 36 be 3c 66 47 8a bc 50 59 1f bb
       0.00092939363 0.02321923 -0.016879749 -0.002431471
0000c0 f4 a0 23 bd 3a f7 75 3d 7d cc 9a bd e3 e4 2b 3e
       -0.03994842 0.060050227 -0.07558534 0.16786532
0000d0 d5 32 2e 3e ac 3b 98 3d ae 6f 2c 3e 5f 3a 85 3e
       0.17011578 0.074332565 0.16839477 0.26021096
0000e0 b1 5a 09 3a 74 27 4e bc ef ee 86 bc aa 54 ac bb
       0.00052396493 -0.012582649 -0.016471354 -0.005259116
0000f0 5b f5 27 3e 0b 7e 60 3c 98 c1 b6 bd 2e 71 19 be
       0.1640219 0.013701926 -0.08923644 -0.14984581

non_linear.weight f4 [32, 64, 1, 1]
000000 fe 8b 5c be eb 6d de 3d 20 06 51 3e a9 a1 55 3e
       -0.21537778 0.10860809 0.20412493 0.2086245
000010 1e bc 32 3c 9b 8a 70 bc 5d 38 49 3e cc 7c 64 3d
       0.010909108 -0.014681484 0.19650407 0.055783078
000020 24 5a 66 3d ec 95 8e 3d b3 a8 6b bd 90 75 e2 bd
       0.05623831 0.06962189 -0.05753393 -0.110575795
000030 a6 e7 69 3d 37 4e e5 bd 74 52 f0 bc b9 b2 62 3d
       0.057105683 -0.11196559 -0.029336192 0.055346224
000040 48 bb 29 3e 3c c5 ae bd ea d5 bd 3d aa 2f c7 3d
       0.16575348 -0.08533713 0.092693165 0.09725888
000050 6b b6 9f bd 94 f9 d4 bd 47 0c 7f be a2 a9 38 be
       -0.07798465 -0.10399166 -0.24907027 -0.1803346
000060 a3 d6 76 bd 15 36 f9 3d 40 b6 aa 3e 46 ba 33 3d
       -0.060263287 0.121685185 0.3334217 0.043878816
000070 0c 15 66 3e 59 4f ba 3d 58 8f 4b be 9d f2 b9 bc
       0.22468966 0.090971656 -0.198789 -0.022698695
000080 07 8e 99 3c bd 52 46 3d 90 b9 55 bd 37 65 64 bd
       0.018744482 0.04841875 -0.05217892 -0.05576059
000090 e4 70 6e 3a d8 b8 6a 3e 7a 24 f1 bd 7e 03 1a bd
       0.00090958015 0.22922075 -0.117745355 -0.037600987
0000a0 4a 1d 23 3e 73 ad 3e 3e d9 3e 2b bd 80 0b ad bd
       0.15929142 0.18620853 -0.041807983 -0.08449459
0000b0 08 55 cb bd 72 72 c4 bc 4a d4 4e bd df f2 fb 3c
       -0.09928328 -0.023980353 -0.050495423 0.030755458
0000c0 0f 39 bf 3d a1 60 b9 3d 47 ed 2d bd ed ae 91 3d
       0.09337055 0.090516336 -0.042462613 0.071134426
0000d0 54 c8 32 3d 6f 21 61 3e 12 a0 93 3d 72 b1 2a be
       0.04364808 0.2198541 0.07208265 -0.16669253
0000e0 4a 7c b2 bd a3 7f 40 3d 73 38 01 3d ba 3d 3f be
       -0.087151125 0.046996724 0.031547975 -0.1867589
0000f0 26 3a e5 bd 5b 9d c1 bd 55 03 ba 3d db aa f0 3d
       -0.111927316 -0.09453841 0.09082667 0.11751338
000100 60 ed 1e bc d3 c2 72 39 ac 86 24 3c d9 9e 3f bd
       -0.009700149 0.00023151496 0.010041874 -0.04678235
000110 8b 1a 85 3d 54 51 9d bd de 70 90 3d f8 c4 d6 bc
       0.06499203 -0.07681528 0.07052778 -0.026216969
000120 8d 53 88 3d d5 f5 bd 3b 18 6f ec bd 53 4a e2 3d
       0.06656561 0.0057971277 -0.11544627 0.110493325
000130 2e b5 fd 3d 92 5b 7e bd c0 50 5d 3c 45 65 08 bd
       0.12388073 -0.062099047 0.013508022 -0.033299703
000140 24 2f e8 bd f6 0a 6f 3d 1d 9a d0 bd a6 8f a5 bd
       -0.11337116 0.058360063 -0.10185645 -0.080840394
000150 ba 51 c1 3d 34 bf 30 3d b4 81 50 bd ea 16 c1 bd
       0.09439416 0.043151096 -0.050904945 -0.09428199
000160 28 4c eb bc ca e4 a2 bb 8c cd af 3d 5f 11 38 3d
       -0.028722838 -0.0049711214 0.08584127 0.04493844
000170 8c 55 bb bd 18 ec 3f 3c ed 4d db bd d2 86 92 bb
       -0.09147176 0.011714004 -0.107082225 -0.0044716382
000180 7b 98 a1 3d ca af ad 3d 45 92 6c 3d 26 82 2b bd
       0.078904115 0.08480795 0.05775668 -0.041872166
000190 00 c2 8b bc 09 4d 53 bc 1f ba b6 3d 28 f4 07 3d
       -0.01706028 -0.012896785 0.089222185 0.03319183
0001a0 72 55 97 3c 64 37 d9 bc 08 03 d9 3c 38 af b9 3d
       0.01847336 -0.02651567 0.026490703 0.090666234
0001b0 83 1a f9 bd de c4 9c 3d b1 0e 0f bd a2 f8 c8 3d
       -0.1216326 0.07654737 -0.03492612 0.09813048
0001c0 22 24 aa bd 9b 33 44 3d 13 6b 2f ba 54 30 09 bb
       -0.08307673 0.047900777 -0.00066916755 -0.0020933347
0001d0 e4 4d b6 bd 08 ca bd bd 35 af 06 3d 19 d5 f0 bd
       -0.08901575 -0.0926705 0.032881934 -0.11759395
0001e0 00 0a 24 3d 7b 3f e3 3d e0 da c2 3c 55 f9 d6 bd
       0.0400486 0.11096092 0.023786008 -0.10496775
0001f0 8e e0 2d 3c 90 2c 86 bc 02 73 72 bd c2 27 8a bd
       0.01061262 -0.01637867 -0.05919171 -0.067458645
000200 15 69 1b 3d 76 75 f1 bd 3a c6 c2 3d 2b 75 b4 bd
       0.03794201 -0.11789982 0.09510465 -0.088114105
000210 9e 40 62 bd 84 12 27 3d 44 66 f1 bd 16 10 cc bd
       -0.055237405 0.040789142 -0.11787084 -0.09964006
000220 e0 70 94 3d 7a 81 32 bc 57 59 e9 bd 8f d3 f7 3b
       0.07248092 -0.010895127 -0.11393993 0.0075630615
000230 50 f1 fb bd 54 d2 b1 bd 20 3b d7 3d d4 d9 e2 bd
       -0.12301886 -0.08682695 0.10509324 -0.11076704
000240 22 70 0e bd 8b 94 b7 3d 67 74 de 3d 14 25 10 3d
       -0.034774907 0.08963879 0.10862046 0.03519161
000250 60 d0 17 3c 4f fd d9 3c 66 c7 ec bd d0 0c 8d 3d
       0.009265989 0.026610045 -0.1156147 0.068872094
000260 bc cb 4f bd 08 22 0a bd f3 ba cf bd 30 a9 64 bc
       -0.050731406 -0.03372386 -0.101430796 -0.013956353
000270 09 2c 8f bd 6c 3d cc 3d 3d 02 f9 bb fb b1 ad bd
       -0.06990821 0.09972653 -0.007599144 -0.08481213
000280 c6 dd d8 bc 01 3a c4 3d 9d c3 c9 3d f1 f7 3f 3d
       -0.026472937 0.09581376 0.098517634 0.046867315
000290 a8 5e af 3d b7 dd 92 bd 98 14 7a bd 00 63 4f 3d
       0.08562976 -0.07171195 -0.061054796 0.050631523
0002a0 4d 8e c4 bd 25 37 8c 3d cc 5b a4 3c 2c f1 78 bd
       -0.09597454 0.068464555 0.020063303 -0.060776874
0002b0 65 39 3e bd 19 6c 05 3c e4 c7 c7 3d c2 15 e2 bd
       -0.046441454 0.008143448 0.09754923 -0.11039306
0002c0 2a e7 ea bd 87 58 8c 3d ae 15 b4 3d 75 e4 76 3c
       -0.11469872 0.06852823 0.087931976 0.015069117
0002d0 1d dd c7 bd 37 a9 37 3c 76 a4 14 3d 92 1d 95 bc
       -0.09758971 0.011209778 0.036289655 -0.018202577
0002e0 e8 d1 b1 3d 2c 7c ff 3b 80 33 1c 3d 64 e1 f5 3d
       0.086826146 0.007796785 0.03813505 0.120058805
0002f0 f4 ea 56 bd d6 aa de bd 54 a8 ba 3d 3a bf 99 bd
       -0.052470163 -0.10872428 0.09114137 -0.07507177
000300 38 25 c4 bd 32 9a f6 3d 7f 74 89 3d c1 98 f2 bd
       -0.095774114 0.12041129 0.06711673 -0.11845542
000310 bb c7 0d bc 6a ff 04 3d 52 6f 2b bc 12 09 e0 3d
       -0.0086535765 0.032470144 -0.010463553 0.1093923
000320 1e df f9 3d bd 47 00 be a3 c0 0b bd b4 cb 22 be
       0.12200759 -0.12527366 -0.03411926 -0.15898019
000330 da 17 b5 3d a0 1a 9f 3d fd a7 ea 3c 04 c4 ca bd
       0.0884244 0.0776875 0.028644556 -0.09900668
000340 71 6a 38 3e c2 5d 4c bd 04 8e c4 bc 7c 9b c9 bd
       0.18009354 -0.049894102 -0.0239935 -0.098441094
000350 91 10 dd 3c 52 7b 69 bd c5 4f c8 bd 8b f0 ac 3c
       0.026985439 -0.057002373 -0.0978084 0.021110794
000360 12 49 20 3e 38 7c c9 bd e9 2d dc bd 33 1f b2 bd
       0.15652874 -0.09838146 -0.10750944 -0.08697357
000370 af 1e 1b 3e e0 8c a6 bd 2d 2a 47 be 2f 76 4a 3c
       0.15148424 -0.081323385 -0.19449683 0.012357279
000380 0d 09 22 be 13 30 0f 3d 1a 51 c9 3d 70 00 aa bd
       -0.15823765 0.034957957 0.09829922 -0.08300865
000390 8d 5c 85 bd bb dc 3a 3e 5b 4d a8 bd a6 a0 4e ba
       -0.06511793 0.18248264 -0.082178794 -0.0007882215
0003a0 69 7f 5b 3e 9e 65 2b bc 6e 01 de bb fa b9 5c 3a
       0.21435322 -0.010461239 -0.006775073 0.00084200467
0003b0 ff 69 09 be 18 21 3b bd 88 7c e8 3d fe 4d ba 3d
       -0.1341934 -0.045685858 0.113518775 0.09096907
0003c0 ac 55 33 3b 3a 69 ae bc a8 33 92 bd 85 2a 87 3d
       0.0027364297 -0.02129041 -0.07138759 0.06599907
0003d0 e8 1c a5 3d 41 4f 4b 3e 6d ab 8b bc 25 d2 5e bd
       0.08062154 0.19854452 -0.017049516 -0.05439963
0003e0 c0 72 25 bc 2f f0 bd bc 70 e7 17 bc 81 23 93 bc
       -0.010098159 -0.023185818 -0.009271488 -0.017961266
0003f0 12 61 2b 3e bd 7d 23 bd 11 24 9a 3d ab 43 0d 3e
       0.16736248 -0.039914835 0.0752641 0.13795345

non_linear.bias f4 [32]
000000 e5 e5 35 bd 3f aa af 3b 01 34 ab 3d c1 13 28 bd
       -0.044408698 0.005360871 0.08359528 -0.041034464
000010 38 57 ba bd cf b9 69 bd a0 80 b1 3e cd 6e 59 bd
       -0.09098667 -0.057061967 0.34668446 -0.053084183
000020 86 5d 19 bd 66 25 d9 bd 0b 5f c0 bc 8e 88 f4 bd
       -0.037442707 -0.10602836 -0.02348282 -0.11940108
000030 c9 a6 2c 3e 61 a1 36 bd b7 19 9f 3e 7b 00 47 3d
       0.16860498 -0.044587497 0.31074306 0.048584443
000040 6e 9e b2 3e 37 c9 9e 3e c8 d2 78 bc d8 84 9b bd
       0.34886497 0.3101289 -0.015186973 -0.07593697
000050 72 4c d0 bd 09 87 1d 3e 80 64 e2 be 1e 16 66 bd
       -0.10170831 0.15383543 -0.442173 -0.056173436
000060 cf ec 44 bd 35 c1 b6 3e 57 49 20 bd 90 dd 91 3d
       -0.0480774 0.3569428 -0.039132442 0.07122338
000070 09 17 71 3e 08 ab 0c be 44 2b 55 3e 2a 79 aa 3b
       0.23543943 -0.13737118 0.20817286 0.005202432

reconstruction.weight f4 [3, 32, 9, 9]
000000 07 76 de bc fe 95 04 bb a2 71 4d 3c 44 3c 90 3c
       -0.02715589 -0.0020231004 0.012539299 0.017606862
000010 72 58 16 3d ba 7d a5 ba a0 17 d9 bc e8 45 16 bd
       0.03670544 -0.001262597 -0.026500523 -0.03668776
000020 bd 68 df 3c d9 18 87 ba 2c eb 5f bc 34 3b c3 3c
       0.027271623 -0.0010307088 -0.013666909 0.023831941
000030 f4 26 16 3d 08 03 20 3d 69 cd a5 3c 0b 8b 36 3d
       0.036658242 0.03906539 0.020239549 0.044566195
000040 ae da 13 3a ff 44 1e bd 27 51 65 3d 23 e7 e1 bc
       0.0005640191 -0.03864002 0.055985596 -0.027576035
000050 30 6f 4b 3c 0f 33 83 3d 30 19 13 bc 1a a1 4c bd
       0.012416646 0.06406223 -0.008978173 -0.049958326
000060 33 c9 41 3d 9f 95 90 3d 9a 2d b0 bc d4 81 a8 39
       0.04731102 0.07059788 -0.02150612 0.00032140187
000070 a6 e0 3b bd 69 b1 7a 3d 84 d7 3d 3e 03 2e a1 3d
       -0.04586854 0.061204348 0.18539244 0.07870104
000080 4e 87 b2 bd a7 16 b4 3c fd e2 46 3d 2e 2d 00 bd
       -0.087172136 0.021983458 0.048556317 -0.031293087
000090 eb 36 44 bc 5f 6d 80 3c 80 ec 17 3e b1 31 80 3e
       -0.011975984 0.015677152 0.14836311 0.25037912
0000a0 a4 3d 1d 3e 10 0c 09 3c 46 b8 d3 3c 59 9e 25 3d
       0.15355545 0.008364692 0.025844704 0.040434215
0000b0 fd 22 3c bc 22 a0 33 bc f2 b7 70 3c 12 1d 97 bc
       -0.011482951 -0.010963472 0.0146922935 -0.018446479
0000c0 61 e9 82 bd a8 af 02 bb 15 e1 a1 3a f4 46 a9 bc
       -0.0639217 -0.0019941125 0.0012350405 -0.020663716
0000d0 a2 d0 31 bc 64 26 73 bc 13 0e 6a bc 33 8c 92 3c
       -0.010852965 -0.014840696 -0.014285582 0.017889118
0000e0 ee ca 4c bd dc 33 fa bd 4b b9 2f 3c 36 47 d5 3d
       -0.049998216 -0.12216923 0.01072533 0.10413973
0000f0 2f 71 94 3c b0 66 4f bc 41 82 0b 3c b9 f6 bf bc
       0.018120376 -0.01265876 0.008514942 -0.023433076
000100 81 e3 54 3d cd 1b 82 3d 9e 93 2f 3d 46 1c b6 3d
       0.051974777 0.06352959 0.042865388 0.088921115
000110 37 8b af 3d a6 7b bb 3c 5b 29 2b bc 3c b3 9e 3c
       0.08571475 0.022886109 -0.010446872 0.019372575
000120 d0 9b 69 bc 5c f6 e1 bc c3 4c 2d bc 97 61 05 bb
       -0.01425834 -0.027583294 -0.010577383 -0.0020352358
000130 70 b4 92 bc 57 5b 32 bb 57 f7 b5 bb 7e 3c 04 bc
       -0.017908305 -0.0027215087 -0.005553167 -0.008071063
000140 f2 ae 19 3d e2 f9 24 bc 68 a8 8a 3c b3 69 2c 3c
       0.037520356 -0.010069342 0.016926005 0.0105232475
000150 30 21 74 3c 91 e7 5b bb 18 63 3b 3c 8b a1 8d bc
       0.014900491 -0.0033554772 0.0114372 -0.017288944
000160 33 95 73 ba c9 42 79 3c 1a c5 66 3c 9c a6 78 3c
       -0.0009291947 0.015213677 0.014085079 0.0151764415
000170 15 70 62 ba d9 2a 02 3c 73 5f 8a 3c 13 66 de 3a
       -0.00086379173 0.007944786 0.016891217 0.0016967676
000180 b8 2e 34 bc 34 2e 9f bc f3 07 6c 3c 91 d4 ce ba
       -0.010997467 -0.019431211 0.014406192 -0.0015779902
000190 16 ce 94 3b 5f 03 61 36 2f 41 a1 3a 86 0e 8d 3c
       0.004541169 3.3529575e-06 0.0012302751 0.01721884
0001a0 d5 12 d8 ba d5 4b 89 3b 4a 95 8f 3c 7f cf 8f 3c
       -0.0016485105 0.004189948 0.017527241 0.017554997
0001b0 92 b5 4f 3c 3e f8 80 3c fc aa 4b bc 77 c7 07 bb
       0.012677567 0.015743371 -0.012430903 -0.0020718256
0001c0 4a 56 46 3b b2 2a 5c bc ad dd a9 3b a7 67 8e bc
       0.0030263835 -0.013437914 0.0051838965 -0.01738341
0001d0 09 62 99 3c e5 6e 3b 3c 7b b6 77 3c 8b 39 67 3c
       0.018723505 0.011440014 0.01511919 0.01411284
0001e0 73 e8 7a 3c 9b b0 a2 bc e7 3c ad bb 25 4f 6b 3c
       0.015314209 -0.019859603 -0.005286801 0.014362131
0001f0 5e f9 80 bc 6f 0d 8d bc 36 e7 99 bc 83 5f a9 3b
       -0.015743908 -0.01721832 -0.018787008 0.0051688566
000200 93 bf 9a bc 96 ba e4 bb 2d 50 2b 3c 16 57 71 bc
       -0.018890178 -0.0069802506 0.010456127 -0.014730236
000210 f1 37 66 bc f5 00 42 bc 50 e0 01 3c d9 4e 1f bc
       -0.014051423 -0.0118410485 0.007927015 -0.009723389
000220 6a bc 96 3c 7f b2 97 bc ff c8 63 3c 78 03 85 ba
       0.01840039 -0.01851773 0.013902902 -0.0010148128
000230 9b e1 73 bb 65 0d 00 3c 90 18 61 3b 4f ca e6 bb
       -0.0037213329 0.0078156935 0.0034346916 -0.00704316
000240 da 1c 9d bc 63 46 8f 3c 7f ab e5 bb 60 9a 33 bb
       -0.019178797 0.017489618 -0.0070089693 -0.0027405247
000250 68 28 ea bb 85 84 98 3c 82 47 d7 ba 39 82 5a bb
       -0.00714593 0.018617878 -0.0016424509 -0.003334178
000260 91 15 e6 bb 49 14 85 bb 33 3e 81 3b d7 58 a2 bc
       -0.007021614 -0.004061256 0.0039441823 -0.019817753
000270 6d 0f 51 3c 1a 54 9d bb 73 8f 41 3c 8d ef 93 bc
       0.012760025 -0.0048012855 0.011813986 -0.018058563
000280 de 59 8b 3a 5a 34 1a 3c ba 96 85 bc 4b e0 e3 3b
       0.0010631641 0.009411896 -0.016307224 0.006954228
000290 20 b3 c2 bb 0d 7b 16 3c c0 a3 a5 3b f9 63 54 b8
       -0.0059417635 0.009184611 0.005054921 -5.0637846e-05
0002a0 39 ca 5d 3a da 2a 07 3c 9f b9 8d bc 6b 63 8b 3b
       0.00084606145 0.008249963 -0.017300425 0.004253795
0002b0 4a 33 92 bc 6d f0 ad 3b 54 18 9a bc 80 60 26 3c
       -0.017846722 0.005308202 -0.018810429 0.010154843
0002c0 7b 37 7e 3a 15 b3 4c bc b6 98 1d bc aa be 0a ba
       0.0009697598 -0.012493868 -0.009618929 -0.00052926934
0002d0 19 82 8f bc 2e 6b 32 bc e7 05 a4 bc e2 17 1b 3c
       -0.01751809 -0.010889811 -0.020022346 0.009466143
0002e0 91 bb 16 3b b4 67 8d ba 1c 15 9a 3c 73 0e 75 bc
       0.0022999982 -0.0010788352 0.018808894 -0.014957058
0002f0 c4 bb 6e bc 3d 81 5c bc 93 90 0e 3c ff 23 91 3c
       -0.014571134 -0.013458547 0.008701461 0.01771736
000300 d3 a6 99 bb 21 f4 3c bc 52 8b 8b bb a4 56 3a bc
       -0.0046890764 -0.011532814 -0.0042585516 -0.011373196
000310 5a 04 a0 bb eb b3 c3 38 06 bd ab bb 65 b8 5c bc
       -0.0048833312 9.331837e-05 -0.005241039 -0.013471697
000320 42 16 95 3c 8b 0d a0 bc 18 03 9a bc e0 80 ac 39
       0.01819909 -0.019537708 -0.018800303 0.00032902416
000330 a9 6c 9f bb f1 f8 21 3c 7b 0d bf b9 09 89 96 3c
       -0.004865248 0.009886012 -0.00036440403 0.01837589
000340 4f b3 70 3b 33 c3 7a bc 0a 21 9a bc aa 63 8e 3c
       0.003672797 -0.015305328 -0.018814582 0.017381508
000350 64 f0 ab 3b 1e b3 36 3c 18 2c c2 3b 99 9f f6 bb
       0.0052471627 0.011151103 0.0059256665 -0.0075263497
000360 29 ac 8c bc f6 19 92 3c 51 2b 11 3b d8 4c 19 bb
       -0.017171936 0.017834645 0.0022151063 -0.002339175
000370 22 c4 92 3c 6e 7a 72 3c c5 ff 3a 3b fd 45 82 bc
       0.017915789 0.014799697 0.0028533798 -0.015902514
000380 8e 27 2b bc 4d 98 a6 3b f5 c9 9d bc e3 bb d0 3b
       -0.010446442 0.0050840736 -0.01926134 0.006370054
000390 70 96 80 3c 88 a0 84 bc 90 0c d5 3b 7f 56 09 3c
       0.015696734 -0.016189829 0.0065017417 0.008382439
0003a0 4a 2e 86 bc f2 96 94 3c 03 aa 76 bc cc 87 5e bc
       -0.016379494 0.018138383 -0.015055182 -0.013582181
0003b0 a5 71 7e bb 8e 38 8f bc ab 54 17 bc a5 d4 89 3c
       -0.0038825062 -0.017483022 -0.009236495 0.01682503
0003c0 d5 89 88 3c fb a2 1c bb 65 7a 3e ba 32 46 e4 ba
       0.016667286 -0.0023900855 -0.0007266163 -0.0017415939
0003d0 45 50 9a bc 9a a3 c0 bb c2 bb 05 bc 99 09 8c bc
       -0.018837104 -0.005878878 -0.008162441 -0.01709442
0003e0 1e 70 98 bc 8a e8 11 bc ea e8 f4 bc da 74 da 3c
       -0.01860815 -0.008905539 -0.029896218 0.026667047
0003f0 24 cc d5 bb fc 5e 3d 3b 4d 7b cd 3c 92 61 9b 3c
       -0.0065245796 0.0028895726 0.025083208 0.018967424

reconstruction.bias f4 [3]
000000 d6 d4 7e be a2 20 72 be d4 77 82 be
       -0.24885878 -0.23645261 -0.25482047
